models/pose_classification.pth (torch, 32159 bytes, 4 tensors)

l1.weight f4 [256, 24]
000000 68 96 11 be 38 9f a9 be f8 52 8f be 7e 46 9e bd
       -0.14217532 -0.33129287 -0.27992988 -0.07728289
000010 87 60 02 be d6 34 fa bd 78 26 a2 be 81 0a b2 be
       -0.12732135 -0.12217109 -0.31669974 -0.3477364
000020 ed 04 87 be 70 e1 56 be 36 d4 e4 bd a1 86 a3 be
       -0.26370946 -0.20984435 -0.111732885 -0.3193865
000030 cf 3e 6b bc 50 d0 5f be 37 87 fa bc d1 dc 08 bc
       -0.014358236 -0.21856809 -0.030582054 -0.008353428
000040 a0 10 3c be 30 76 7e be 16 8f e5 bd 23 27 8a be
       -0.18365717 -0.24849772 -0.11208932 -0.26982984
000050 f3 51 02 be 1b a3 9e be 4f 58 96 3d b4 ca b2 be
       -0.12726574 -0.30983815 0.07341062 -0.34920275
000060 fb 8c 22 be 79 aa 93 be 5f 98 25 be 9b 9a d6 be
       -0.15874092 -0.28840998 -0.16171406 -0.4191483
000070 7e ab e7 3d 5b cd 5e 3e d6 de a2 bd df bb 5b bd
       0.113120064 0.21758024 -0.07952659 -0.053645965
000080 d2 cc 8d 3d 0b 5e 4c 3d 5c 06 ad 3d a7 1d 0f bf
       0.06923832 0.049894374 0.084484786 -0.5590462
000090 30 b7 81 be 92 82 09 3f 1b 3d 10 be 69 6e f0 3e
       -0.25335073 0.5371486 -0.1408581 0.46959236
0000a0 19 3e 3f 3e dc ab 11 3f c3 f7 39 be 19 a9 41 3f
       0.18676032 0.5690286 -0.1816092 0.7564865
0000b0 72 e0 da be 71 76 ec 3b f7 c9 17 bd 9a d7 81 3e
       -0.42749363 0.0072162678 -0.037057843 0.25359803
0000c0 8a 92 e3 3d 22 18 04 bd d5 f1 c4 bd 90 e2 f6 bd
       0.111119345 -0.032249577 -0.09616438 -0.12054932
0000d0 a0 12 7d bd 8a a2 b6 bc 8d 36 7d be de 33 48 be
       -0.06178534 -0.022294302 -0.2472784 -0.19551036
0000e0 77 a7 d5 bd 22 c9 e3 3d 6e e9 7c bc 2c a5 01 be
       -0.10432332 0.111223474 -0.015436513 -0.12660664
0000f0 ce 3e 2e bd 7d ce 97 bc 65 8b aa bd 53 b8 13 be
       -0.042540364 -0.018531078 -0.08327369 -0.14425783
000100 a1 e3 e2 bd 63 e7 1f be 94 6c 21 be f8 c0 c0 3d
       -0.11078573 -0.15615611 -0.15764076 0.09411806
000110 f2 9e 1e be 0d 46 73 be 0c ca a9 bd ae 23 36 3d
       -0.1549032 -0.23757191 -0.082904905 0.04446762
000120 d7 e2 7f bf ca 5f b3 bd f6 9a 86 3d f0 2b 63 3d
       -0.99955505 -0.08758505 0.06572525 0.055461824
000130 2a d6 4b bf c9 19 ee be c9 c1 f9 3d 54 94 54 bf
       -0.79623663 -0.46504048 0.12195165 -0.8303883
000140 ce df 0d 3f f4 0b 4d 3e 93 19 cd bf e6 87 0a 3f
       0.55419624 0.20024091 -1.602343 0.54113615
000150 ba e6 0c bf cd 43 61 3e c7 d2 35 bd 38 83 81 3e
       -0.5503956 0.2199852 -0.044390466 0.25295424
000160 67 1e 2b 3c fc 54 2d 3f a2 14 7c 3f a5 76 39 3f
       0.01044426 0.677078 0.98468983 0.7244666
000170 94 5c 84 3f d5 1c 91 be d4 51 53 be 66 0c c4 bd
       1.0340753 -0.2834231 -0.20636684 -0.09572677
000180 b0 60 c5 3c 76 a1 19 be c0 59 5c 3d c0 1a 80 bc
       0.024093956 -0.15002999 0.05379653 -0.015637755
000190 b8 20 42 3e 10 74 06 3e e0 b6 41 3d b0 87 3a be
       0.18957794 0.13130212 0.047293544 -0.18215823
0001a0 5c c9 11 be 58 c3 5b 3d 8b db 1b be 06 be 0d be
       -0.14236969 0.05365309 -0.15220468 -0.1384202
0001b0 30 4c 56 bc 58 9a 95 3d 96 44 49 3e 20 ee 41 bd
       -0.013079688 0.07304829 0.1965507 -0.047346234
0001c0 cd ee df bd 14 dc 3f be 04 2b d7 bd 58 20 b6 bc
       -0.109342195 -0.18736297 -0.105062515 -0.02223222
0001d0 59 27 e8 bd e0 8b f5 3b c8 ad 15 3e 04 ac aa 3d
       -0.1133563 0.007493481 0.14617074 0.083335906
0001e0 88 1e 4b 3d 98 a2 0e bf 63 0a 21 be 42 87 20 bf
       0.049589664 -0.5571685 -0.15726618 -0.6270639
0001f0 df 00 b0 bd 19 5d 74 3e c7 05 42 3d ad 20 34 3f
       -0.08593916 0.23863639 0.04736879 0.7036236
000200 91 33 40 bd cc fb 67 3f 76 f3 ed 3d 8d 13 d3 3f
       -0.046924178 0.90618587 0.11618702 1.6490341
000210 ef 17 6f 3e 3e 27 fb be ff c9 17 bc 9d 95 fc be
       0.23348974 -0.49053377 -0.009264468 -0.49332896
000220 d6 ad a4 3e be 1a 1a bf a6 94 b2 3e bd 11 2c bf
       0.32163876 -0.60197055 0.34879035 -0.67214566
000230 a3 4e 9a 3d 10 72 16 bf 6c 4b 95 3e 08 a7 63 be
       0.0753453 -0.58767796 0.29159105 -0.22231686
000240 90 51 33 be f1 2e f8 3c 61 b0 90 be 6b 7f c5 39
       -0.17511582 0.03029582 -0.28259566 0.00037669702
000250 55 62 a5 bb 56 d5 36 be 34 27 a7 bc 8c e7 07 be
       -0.0050471225 -0.17854819 -0.020404436 -0.13271922
000260 8a bc d8 bc bc 13 01 3d bf 2e 0e 3e ec 07 5b 3e
       -0.02645709 0.03151296 0.1388502 0.2138974
000270 8d b1 67 be 7d 6a 5f be d7 c8 19 bd a7 36 e9 3d
       -0.22626324 -0.21817966 -0.03754505 0.11387377
000280 4b 53 ec bd 04 c5 49 3d f7 d5 3c be 48 2d 39 be
       -0.115393244 0.049260154 -0.18440996 -0.1808368
000290 93 68 21 3d 6b cd 10 bd 58 54 60 bb 3a 2c 95 be
       0.03940637 -0.03535215 -0.003422996 -0.29135305
0002a0 a2 11 ba 3d 26 8e 21 be 43 78 20 3e 65 c0 a4 be
       0.090853944 -0.15776882 0.15670876 -0.32178035
0002b0 1f 90 08 be 3f 50 0f 3f 08 4d 73 be 28 dc 3b 3e
       -0.13336228 0.5598182 -0.23759854 0.18345702
0002c0 13 b8 9a bd 5e 78 d5 be 27 5d a6 3e 0e 0a 7c bf
       -0.075546406 -0.41693395 0.32492945 -0.9845284
0002d0 86 60 76 be 57 d9 c9 3e 57 d4 20 be 15 6e 9c 3e
       -0.24060258 0.3942363 -0.15706001 0.30552736
0002e0 ec cd dd 3e b6 04 53 3e 4e 34 03 bf 67 bf 4b 3e
       0.43321168 0.20607266 -0.51251686 0.19897233
0002f0 e9 db c2 bd d6 ee 9c 3e 3e 60 e0 be 72 34 10 3f
       -0.09514601 0.30650967 -0.43823427 0.56330025
000300 e2 51 d4 be b4 38 d0 be 3b a5 ab 3e eb 15 38 be
       -0.41468722 -0.4066826 0.33524498 -0.17977111
000310 05 d7 37 be da 9c 5a 3f 9c 91 79 be 27 f7 4d 3f
       -0.17953117 0.85395586 -0.24371952 0.8045525
000320 09 42 c1 3d 04 e9 e9 bf 5f 31 05 bd 16 1e bb bf
       0.09436423 -1.8274236 -0.032517787 -1.4618556
000330 48 36 d0 bd c0 a0 1f 3f 77 31 c8 3e 17 03 3a 3f
       -0.10166603 0.6235466 0.3910024 0.72660965
000340 68 99 2f 3e 3a a2 fd be 03 1d 91 3d 58 50 21 bf
       0.17148364 -0.49537832 0.07085612 -0.6301322
000350 fa 8a 65 3e 0e b4 41 3f 68 75 1c be 96 ca 5b 3f
       0.22416297 0.75665367 -0.15279162 0.85855997
000360 9c 88 cf 3d d3 e5 46 3f 36 7a 05 3e 65 44 54 3f
       0.10133478 0.77694434 0.13034901 0.8291686
000370 a6 90 8a 3d 19 63 67 bd 90 02 8f 3d 61 4e ae 3d
       0.06765871 -0.05649099 0.06982911 0.08511043
000380 6a ef 5e 3d c3 33 db be 1e 4a cb 3d ea c2 f3 bd
       0.05442754 -0.4281293 0.09926246 -0.11902411
000390 f4 ea 0b bc b3 e0 67 bf 74 d4 bd 3d 80 dd 79 bf
       -0.008539904 -0.9057724 0.09269038 -0.9760361
0003a0 5a 3e 49 be 97 3f 55 bf 7f 35 6d 3e 2c a8 5e bf
       -0.19652691 -0.83300155 0.23164938 -0.8697536
0003b0 03 aa 79 3e 2c e3 ad bd fa a9 d8 3e 31 a9 04 3f
       0.2438126 -0.08490595 0.42317182 0.51820666
0003c0 4e f3 a4 bf dc f3 65 be e4 8d 56 bf 41 38 f7 3a
       -1.2886751 -0.22456306 -0.8381026 0.001886137
0003d0 0c e2 47 bf e3 e0 3e bf 04 00 62 be 78 55 af be
       -0.78079295 -0.745619 -0.22070318 -0.34244895
0003e0 a2 49 66 be 9a 1d 32 bd 59 17 71 bf 43 ab d7 3e
       -0.22489026 -0.04348526 -0.9417625 0.4212285
0003f0 ac e4 48 3b 1c 8f 1c 3e 3d 12 15 3d a7 4b 9e 3e
       0.0030653877 0.15288967 0.036394347 0.30917093

l1.bias f4 [256]
000000 60 3c d1 3e 28 f8 9f 3e 69 d1 cf bc 4f 33 26 be
       0.40866375 0.31244016 -0.02536841 -0.1623051
000010 a3 bb b8 bd a7 12 66 3e 44 2f 04 bd 43 f9 63 3e
       -0.09020164 0.22468053 -0.03227164 0.22263055
000020 c2 6c c7 be 57 8a d7 3e 25 30 d0 bd 3f 0f 5b be
       -0.38950163 0.42097732 -0.10165433 -0.21392535
000030 3e 16 72 3d 9d 78 fb 3e f5 45 64 be 0e 5c fd 3d
       0.059103243 0.49115458 -0.22292311 0.12371074
000040 80 1a 39 bc 80 8f 90 3e 07 f5 fb 3e a3 b6 4c be
       -0.011297822 0.28234482 0.4921038 -0.19991545
000050 2f 85 14 be 08 45 49 be 28 18 27 bd fb c4 6e 3e
       -0.1450393 -0.1965524 -0.04079452 0.2331733
000060 dc 1c 59 be 66 5f d3 bd a1 c3 df bd 0e 3c 87 be
       -0.21202415 -0.1032093 -0.10925985 -0.26413006
000070 24 a9 59 bd d1 5f 9e 3e 87 4d 88 3c 21 46 21 bd
       -0.05313982 0.30932477 0.01663853 -0.03937352
000080 85 c2 ef bd c9 b9 82 bd 80 0b fe bd 55 0e 22 ba
       -0.117070235 -0.06383092 -0.12404537 -0.0006181945
000090 67 d4 d7 bd 0c 89 13 3d 28 39 9c 3e 11 76 a9 3c
       -0.105385594 0.03601937 0.30512357 0.020686181
0000a0 34 e3 1d bc a7 ef 08 3f ca 31 46 3e 88 fd b7 3e
       -0.009636689 0.5349068 0.1935493 0.35935616
0000b0 65 24 ab bd bf ea cc bd 97 95 25 be b6 24 4d be
       -0.08356551 -0.10005712 -0.16170345 -0.20033535
0000c0 08 35 6a be 7e 0b af 3e e4 5f da 3e 73 fa ab 3c
       -0.22871792 0.34188455 0.42651284 0.020993447
0000d0 eb 04 76 bd 6f 60 2c bc 1b d2 29 3e 35 35 ca bd
       -0.060063284 -0.010521038 0.16584055 -0.0987343
0000e0 1e ea 5c be c7 4a 14 3e 63 9a 1e be 4c 7a 59 be
       -0.21573684 0.1448165 -0.15488581 -0.21238059
0000f0 6c b7 4c be c9 9e 14 be 78 d2 0e be 92 ed d2 3e
       -0.19991845 -0.14513697 -0.13947475 0.41196877
000100 c5 e1 a7 be a0 6d 9f be fc b5 7f bd 5a d6 3a be
       -0.32789436 -0.31138325 -0.062429413 -0.18245831
000110 11 98 b2 bd e2 c4 24 3f bd 10 14 3f e2 34 df bd
       -0.087204106 0.6436292 0.5783804 -0.108987585
000120 1f fc b1 bd 9f a2 d7 bd f4 49 be bd f4 eb b4 3e
       -0.086906664 -0.105290644 -0.09291449 0.35336268
000130 d5 e5 ae bd e8 dc 8a 3d e4 1d 6b bd fb ef da bd
       -0.08539931 0.06780416 -0.057401553 -0.10690304
000140 1c 14 ce bd 36 54 18 3e ad 67 a3 bd 7e 81 8d 3e
       -0.10062429 0.14875874 -0.07978759 0.27637857
000150 c2 8e ca 3e e5 60 ca be bc 67 4c be 81 08 bd bd
       0.3956204 -0.3952705 -0.19961447 -0.092301376
000160 8a f9 5b bd 23 e1 05 3f 2d ca 1e 3d 6e 2b 13 3f
       -0.053704776 0.52296656 0.03876703 0.57488143
000170 a5 6d 47 3e b5 59 99 3b 85 90 05 3f 1b 05 4d be
       0.1947542 0.0046798834 0.52173644 -0.20021479
000180 da e6 ac be 5c 79 6c bd a9 e7 13 bd a3 22 97 3c
       -0.33769876 -0.057732925 -0.0361096 0.018449133
000190 a2 fd cb 3d 50 ea 08 be 0c 97 df bd 66 88 a3 3e
       0.09960486 -0.13370633 -0.10917482 0.3194
0001a0 08 14 cc be 2a 42 12 3e 13 5a bd bc 03 4c a0 bc
       -0.39859033 0.14283052 -0.02311424 -0.019567495
0001b0 13 83 b7 3e 50 6d 39 bc d1 55 0a bd c7 fd 2b be
       0.3584219 -0.011317566 -0.033773247 -0.16796027
0001c0 80 c5 9c 3d a3 c8 00 be 32 a7 98 bc 95 4f 03 be
       0.07654858 -0.12576537 -0.018634412 -0.12823327
0001d0 79 4d 12 be 93 ac 7d bc 8d 1c 1f bd 33 98 40 bd
       -0.14287366 -0.015483039 -0.038845588 -0.04702015
0001e0 b9 78 62 be 9a d5 83 be d6 aa d1 be 56 6b a1 3f
       -0.22116365 -0.25748903 -0.4095065 1.2610881
0001f0 5c a5 41 3e 6f 43 a3 3e 4a 9e 1f bd 39 49 0d 3e
       0.18910736 0.31887385 -0.038969316 0.13797463
000200 bb 0c a3 3e 18 2c 83 bd 86 1e 82 be 91 1a 03 be
       0.3184565 -0.064048946 -0.25413913 -0.12803103
000210 29 85 14 be ef f1 69 be f0 c4 1e be 51 f3 fd bd
       -0.14503922 -0.22846197 -0.15504813 -0.123999245
000220 1f 82 da bc db 7b 80 3c cb 6b 24 3f be ee 09 be
       -0.026673375 0.015684059 0.6422698 -0.13469979
000230 8a 46 75 3e 96 4b 2f be a1 c1 9e 3e a2 f0 fc bd
       0.2395269 -0.17118677 0.31007102 -0.123505846
000240 5a f5 21 bd 45 09 8d 3e 79 8a ed bd 21 0b 8b be
       -0.039540626 0.27546135 -0.11598677 -0.27156928
000250 dd 1e cc 3e 09 6f 9f be 42 80 f2 bd d5 27 4e bd
       0.39867297 -0.311394 -0.118408695 -0.050330956
000260 09 a2 8f 3e b8 da c4 3e e2 59 2d bd 74 ec e7 3e
       0.2805331 0.3844812 -0.042322047 0.45297587
000270 f6 4f e1 3d 07 8e 5d 3e 88 9a 6a be 70 7a f5 3e
       0.110015795 0.2163621 -0.22910511 0.47944975
000280 80 17 01 3d 9d 4a a8 bb 95 6f 1a 3c af f7 c2 bd
       0.031516552 -0.0051358477 0.009426017 -0.09519898
000290 3e d3 8c 3e bf c8 21 3e b2 c3 01 bc 42 24 1d 3c
       0.27504915 0.15799235 -0.007920193 0.009591164
0002a0 02 20 21 be c0 ce bc bc 8d 55 ac be 8e 44 38 be
       -0.15734866 -0.023047805 -0.3365902 -0.17994902
0002b0 78 e2 f0 bc 68 fc da bd 81 63 b7 be b5 32 5b 3e
       -0.029404864 -0.10692674 -0.35818103 0.21406062
0002c0 a9 5e 5d 3d 84 04 b7 bc 0c e0 b8 bd bc ae f4 bb
       0.054045353 -0.02234102 -0.090271086 -0.007467119
0002d0 a3 0d 79 bd 01 a1 83 be a6 d9 60 be f3 55 33 3e
       -0.06080402 -0.25708774 -0.21958026 0.17513256
0002e0 4e e4 c4 3f 0d 86 d4 3a 20 2e fd 3e a2 d3 b9 3d
       1.5382173 0.0016214267 0.49449253 0.09073569
0002f0 6b 65 d0 bb c9 1c 06 bd 96 4c 46 be 68 0e 20 bd
       -0.006359746 -0.032742295 -0.19365153 -0.03907624
000300 24 71 24 be b2 4b dc be ce 23 50 bb d9 59 b1 3e
       -0.16058785 -0.430265 -0.0031759623 0.3463886
000310 39 3b 8b 3e 85 59 82 3e 78 fb 0c be 9a 3e 18 be
       0.2719362 0.25458923 -0.13767803 -0.1486763
000320 04 81 19 be f3 53 65 3b 0c 81 ad be dc de ab bd
       -0.14990622 0.0034992665 -0.33887517 -0.083921164
000330 7b fe a4 bd 3f ea 2f 3e 49 3a 97 3e 2a 92 f6 be
       -0.08056351 0.17179202 0.29536656 -0.4815839
000340 a6 40 bf 3d 77 14 41 be bf e8 34 3d 57 f0 2f be
       0.093385026 -0.18855463 0.044167276 -0.17181526
000350 2b 09 97 ba b1 3f 45 3e 8e ad cd 3d bd 59 c0 3d
       -0.0011523118 0.19262578 0.100428686 0.09392116
000360 c6 bf ca 3e dc 0d 90 bd 40 cc a3 bc 43 7a 5b 3e
       0.39599437 -0.070338935 -0.019994855 0.21433358
000370 b0 ff 0b bd f6 d5 5b bd 5c 62 6c bb cd 21 0a bb
       -0.03417939 -0.053670846 -0.003606937 -0.0021077276
000380 4e 98 4d be 44 e6 2d be 50 e3 77 3e 4a 93 9d 3d
       -0.20077631 -0.1698237 0.24207807 0.07694109
000390 cf af 57 3e 5a 93 1b be a4 7f 1c 3f 71 1a f7 3e
       0.2106316 -0.15192929 0.61132264 0.4826236
0003a0 a7 06 0e be a1 d4 ab bd 23 0b f7 bc 00 94 1e bc
       -0.13869725 -0.08390165 -0.030156678 -0.009678841
0003b0 5d c0 82 3e da df be be 44 77 80 bd c0 2b 27 be
       0.25537387 -0.3728016 -0.06272748 -0.16325283
0003c0 cc 90 45 3e 30 73 85 bc 12 c0 48 3e 80 73 6a be
       0.19293517 -0.016290277 0.19604519 -0.22895622
0003d0 f9 61 2f bc 86 c1 ae bd 67 25 45 be 00 a1 6d ba
       -0.010704511 -0.085330054 -0.19252549 -0.00090648234
0003e0 44 2d 41 be 73 40 87 be 10 2f 37 be d5 4d 3c be
       -0.18864924 -0.26416358 -0.17889047 -0.18389066
0003f0 e0 44 9b be 88 a9 52 be bb a3 04 ba 6f 22 4b bd
       -0.30325985 -0.20572484 -0.0005059798 -0.049593385

l2.weight f4 [5, 256]
000000 23 de 12 3f 2e 64 3c be b8 fe d4 ba 2f f0 7b bf
       0.57370204 -0.1839759 -0.0016250229 -0.98413366
000010 5a 15 7f 3d 07 44 81 3e 2f 79 d3 3c 0d da 95 be
       0.06227622 0.25247213 0.02581462 -0.29267922
000020 e2 fe 07 be 0b b4 db 3e b7 65 01 bf ff 19 60 3c
       -0.13280824 0.429108 -0.5054583 0.013678073
000030 ae 59 5f 3f 1e a2 19 3f e7 83 04 be a5 15 ab 3d
       0.87246215 0.60012996 -0.12940942 0.08353738
000040 e0 66 c3 bc 0a 3e 8b 3f 03 e1 5e 3e 88 73 06 3c
       -0.023852766 1.0878308 0.21765523 0.008206256
000050 5d 89 ba bb a4 82 8d 3d c8 6a 8c 3c 24 76 86 bd
       -0.0056926445 0.06909683 0.017140761 -0.06565502
000060 a3 8c 88 bd 22 e6 73 bd 54 41 02 bd 3d 92 40 3e
       -0.06667449 -0.059545644 -0.031800583 0.18805785
000070 6c 9f 89 bc 48 4d 31 3e 5f 12 50 3f 5a b4 9c bb
       -0.016799651 0.17314637 0.8127803 -0.004782242
000080 38 4f 9b 3e 69 5a d2 bd bb 4a 8e bf c2 1b 37 bc
       0.30333877 -0.102711506 -1.1116556 -0.011176052
000090 d8 2d 18 bc 59 1d ab bd dc 2e e7 3e f4 47 1c 3c
       -0.009288274 -0.08355207 0.45152938 0.009538639
0000a0 7e 95 7e bd 69 07 82 3e 19 a8 b3 3c ec 21 4a 3e
       -0.062154286 0.25396279 0.021930741 0.19739503
0000b0 ff c7 5d bd 8c 1d 4a bd 79 bd 33 bd 12 6c 99 bc
       -0.05414581 -0.049344584 -0.043881867 -0.01872829
0000c0 70 f1 84 be 3b 29 03 3f 62 e1 7c be 2e 14 6b 3e
       -0.25965452 0.5123479 -0.24695352 0.22956917
0000d0 98 8c 8b be 57 f2 8c 3d cd c7 72 be 70 80 13 bd
       -0.27255702 0.0688216 -0.2370903 -0.03601116
0000e0 01 b4 f2 b9 84 e4 9e 3e e8 e0 0c 3c 7d 10 92 bd
       -0.0004629195 0.3103372 0.008598544 -0.07132051
0000f0 63 22 bd 3e a6 51 d6 3b 00 30 c2 38 d5 92 0b bf
       0.36940297 0.006540495 9.2595816e-05 -0.5452092
000100 6d f6 b4 be 8f 75 95 3d 80 ae a1 ba 80 d3 ce bc
       -0.35344258 0.07297813 -0.001233533 -0.025247335
000110 68 6b 56 bc 68 01 af 3d 8c 6d 07 3f 78 20 17 bc
       -0.013087131 0.0854519 0.5290153 -0.00922405
000120 f4 1f 28 bd c0 5c b5 bb 25 83 88 3d a3 b1 f2 3e
       -0.041046098 -0.0055347383 0.06665639 0.4740115
000130 62 dd 51 bc ed c1 1c bc 60 63 05 3c 5d 0d 44 bf
       -0.012809129 -0.00956772 0.008141369 -0.7658289
000140 55 3f 37 bd 02 18 1e 3d df 1e 8f bd 93 21 c7 3e
       -0.044738133 0.038597114 -0.0698831 0.38892803
000150 c0 86 e8 3e 4b 8f 5b 3e c8 0d 4f 3e 0e fe 2c 3d
       0.45415306 0.2144138 0.20220101 0.042234473
000160 ab 15 e6 be ed d9 05 3e a6 bb 8a 3e 42 61 1f 3f
       -0.44938406 0.13071413 0.2709629 0.6225778
000170 87 d4 bc be cc 0f ac bd 03 52 3d 3f e0 c7 a0 3c
       -0.36880895 -0.084014505 0.73953265 0.019626558
000180 25 7d 9c 3d b0 6b f8 3c bd 4c d2 3c cf 0c bc bc
       0.07641057 0.030324787 0.025671357 -0.022955326
000190 5e 12 9a 3d 30 ae 93 bb a7 51 1a bd 63 15 64 be
       0.075230345 -0.0045068488 -0.037675526 -0.22273783
0001a0 79 50 12 3f 40 66 12 bf 3f c6 ab ba bf 70 50 3e
       0.5715404 -0.5718727 -0.0013105347 0.20355509
0001b0 4e e8 46 3f b9 ed 46 3e c2 9e 76 bd 9a b9 84 3d
       0.7769822 0.19426621 -0.060209997 0.06480713
0001c0 c7 08 8a bb 90 73 6a bd d7 bc 09 bd 55 7d 9b bd
       -0.004212472 -0.057239115 -0.033627357 -0.075922646
0001d0 84 48 22 3d ec fb ce 3e a4 89 15 bb cf 85 d7 be
       0.039619938 0.40426576 -0.0022817636 -0.42094275
0001e0 89 d5 a5 bd 8a 2c 49 3d bf 55 44 3e 73 ac 03 3f
       -0.08097369 0.04911474 0.19173335 0.5143501
0001f0 d5 59 d0 3d f4 d4 1a 3f 01 9e 7d be c6 41 17 3f
       0.10173384 0.6048119 -0.24767305 0.5908474
000200 94 81 97 3d cd b9 c3 bd 19 de 99 bd 8f e6 12 3d
       0.07397762 -0.09556923 -0.07513065 0.03586441
000210 ba 57 4b 3d 4c 42 b1 3c df 42 3d 3d 9e 1e 4d bc
       0.04964421 0.021638058 0.04620635 -0.012519507
000220 49 78 75 bd 27 07 f7 3b 8d 2c 5a 3f f7 25 ef be
       -0.059929166 0.0075386944 0.8522423 -0.46708652
000230 a4 54 b4 be d4 48 18 bd c7 09 16 bf 9a 78 7c bd
       -0.35220826 -0.03717883 -0.5860867 -0.061638452
000240 bb 11 f6 3c a9 93 17 3e 3e 7d 72 bd af f1 61 3e
       0.030037751 0.14802422 -0.05920147 0.22064851
000250 cc 7e 91 3e 2f 95 a6 3f 7c 6e 01 3e 7b c9 90 3e
       0.2841705 1.3014277 0.12639803 0.28278717
000260 fb 8f 97 3f c4 1f 57 3e d9 31 bb bd 3a 89 db 3e
       1.1840814 0.21008211 -0.09140367 0.42878133
000270 07 c7 bc be ba 44 93 3e bf 92 75 3e 2d 6c 55 3f
       -0.36870596 0.28763372 0.2398176 0.8336819
000280 b2 8a 2e 3c 72 d3 02 be 87 9f ab 3e be f2 19 3d
       0.010653185 -0.12775972 0.33520147 0.037585013
000290 54 df 4b 3e cb 27 42 3e dc 42 94 bd f7 1e b1 3d
       0.19909412 0.18960492 -0.07239315 0.08648484
0002a0 d2 8a da bd ac 9c 98 3c a3 a3 02 3f 58 c1 0a 3c
       -0.10671009 0.018629394 0.5103094 0.008468948
0002b0 52 f2 78 3d 05 80 2d 3c a3 ae 11 3e c0 3c 8d 3f
       0.06077797 0.010589604 0.14226775 1.1034164
0002c0 e8 91 55 bb 97 c4 5d bd 1e b0 49 3d e5 2e 15 3c
       -0.0032588188 -0.05414256 0.049240224 0.009105419
0002d0 c6 7b eb bd b6 af 46 3e e6 12 85 bc 84 0a 1a bf
       -0.11498217 0.19402966 -0.016244363 -0.60172296
0002e0 da b4 31 be 78 c2 e3 bd b6 c9 62 3f e7 32 38 3d
       -0.17354146 -0.11121076 0.88589036 0.04497042
0002f0 53 38 28 bc a5 37 a7 bd fd 5c 0e 3c e8 b5 24 bd
       -0.010267335 -0.0816491 0.008689162 -0.04021254
000300 40 f3 cd bc 61 8f 4f be 44 89 00 3c 27 e1 47 3e
       -0.025140405 -0.20269538 0.007845227 0.19519483
000310 e7 65 c5 3e 05 24 25 3e 08 7f 66 3d f4 42 26 bc
       0.38554308 0.16127022 0.05627349 -0.010147799
000320 92 7d 85 3e b1 f3 02 3d d8 0b f1 be bb 92 32 3d
       0.26072365 0.031970683 -0.4707935 0.043596964
000330 ac 05 e5 bc 26 d4 8e bd d7 46 4f 3d 6e d5 dc 3e
       -0.027956806 -0.06974058 0.050604668 0.43131584
000340 ed 07 a6 3e 00 30 6d 3b 9c 4e bc 3d a4 63 a7 bc
       0.32427922 0.003619194 0.09194681 -0.020433255
000350 6c eb 49 3d fc 63 56 3e ca b8 ef bb 74 24 a9 3e
       0.04929678 0.20936579 -0.0073157297 0.33035624
000360 fd 6d 0d 3f 32 8e f0 bd 64 c1 a0 3c 8f a9 1d 3f
       0.55245954 -0.117458716 0.019623466 0.6158685
000370 48 5c 1d 3c a3 0f 64 be aa 1f 86 3d 5c 9a 48 bd
       0.009604521 -0.2227159 0.06549008 -0.048975334
000380 87 88 d2 bd 3d e1 b6 bc f7 91 ef be bd ae 09 bf
       -0.10279947 -0.022324199 -0.4679105 -0.53782254
000390 b9 aa 3f 3e e0 31 b8 bc 8d 33 ee 3e b0 9e 28 3f
       0.1871747 -0.02248472 0.46523705 0.6586714
0003a0 0c 6d 68 be da dc 79 bd a5 17 bc be 20 2b 95 bc
       -0.22697848 -0.061001636 -0.3673679 -0.01820904
0003b0 6d e1 64 3e 00 2f b6 bd 13 f3 b8 3c 92 54 ab be
       0.22351618 -0.08895683 0.022576844 -0.3346296
0003c0 3f 01 e4 bd 6e 67 5e bd 3a 23 af 3e 04 78 cf 3d
       -0.1113305 -0.054297857 0.34206563 0.10130313
0003d0 6d ef 64 3d 17 18 44 bd 22 e8 21 3d 19 7a 80 3c
       0.055892397 -0.047874536 0.03952802 0.01568322
0003e0 2a 9b e6 3c b1 2e a7 be ea c0 62 bd 88 14 a1 bd
       0.02815016 -0.3265281 -0.05535976 -0.07865244
0003f0 d2 ba 42 3e 74 2a b8 bd 1c 3c 02 bb 74 3b be 3d
       0.19016579 -0.08992472 -0.0019872254 0.092886835

l2.bias f4 [5]
000000 57 6f 14 bd 66 64 34 3c 9e 63 ba be 42 c1 c2 3e
       -0.036238994 0.011010265 -0.36404127 0.3803807
000010 78 32 2e be
       -0.1701144
